model.pt (torch, 219402 bytes, 17 tensors)

weight f4 [16, 3, 4, 4]
000000 0e e0 1c 3d 29 f7 94 bd d5 3a b7 3c fe 51 30 3e
       0.038299613 -0.072737046 0.02236692 0.17218778
000010 de df f5 bb 65 47 1b 3e 52 6e 9d bd 78 0d 40 3e
       -0.0075034937 0.15163954 -0.076870576 0.18755138
000020 cb 14 ed 3d c7 da bb bc f6 90 ec bc b6 51 cd 3d
       0.115762316 -0.02293147 -0.028877717 0.10025351
000030 02 56 59 bd 1a 94 26 3d ea d7 4a bd 7a 78 bc 3d
       -0.05306054 0.040668584 -0.049522318 0.092026666
000040 ba cc f8 bd eb 94 ba bd 56 9b 4a bd a0 57 08 be
       -0.121484235 -0.09110435 -0.049464546 -0.13314676
000050 f5 b2 1a be a5 c0 a8 3c 7a bb 26 be 32 39 c2 3d
       -0.15107329 0.020599673 -0.16282454 0.094835654
000060 35 03 ae bd 63 78 04 be 65 1b 53 bd e2 5c 63 be
       -0.084967054 -0.12936549 -0.051539797 -0.222034
000070 24 86 36 3d 2d af 46 be e7 af aa bb 39 66 c8 3c
       0.04456152 -0.19402762 -0.0052089575 0.024462806
000080 d5 f0 e6 3d 35 a5 62 3d 42 d1 06 3e 97 50 b0 3c
       0.11276404 0.055333335 0.13165763 0.021522803
000090 46 e9 67 3e 13 d5 cf bc 67 d1 98 bd 1f 78 02 3e
       0.2264758 -0.025370156 -0.07461815 0.12741135
0000a0 4c 3d 16 3e 7a 9b b3 3b de f8 75 bd be 46 9a bd
       0.1467182 0.0054811807 -0.06005179 -0.07533024
0000b0 34 bd 16 bd fb 15 7b 3c 88 94 18 bd d7 86 1f 3e
       -0.036801532 0.015325065 -0.037251025 0.15578781
0000c0 db 0f 9d bb fc b9 34 3e a0 90 65 bd 65 84 08 bd
       -0.00479315 0.17649072 -0.05604613 -0.033329386
0000d0 d0 27 65 3e dd 77 35 3e 2f 55 fc bc f3 a9 c2 bc
       0.22378469 0.17721505 -0.030802337 -0.023762679
0000e0 1e 8f 8b bc cf be fa 3d f6 f0 e8 bc 48 f6 2a 3e
       -0.017036017 0.12243425 -0.028435212 0.16695511
0000f0 8a cd 2f 3d e9 57 c1 bb b9 0e 1d 3e 3f 2b 00 bc
       0.042920627 -0.0059003723 0.15337647 -0.007822811
000100 1b 0d 08 3d 5b c2 9e 3d bc d8 9f 3c ea 93 02 be
       0.033215623 0.07751914 0.019512527 -0.12751737
000110 3b a9 fc bc 35 0f 04 3c 94 99 8b 3d 37 90 62 bc
       -0.030842414 0.008060266 0.06816402 -0.013828329
000120 1b 79 1d 3e 0c 02 e5 3d 96 fe bc 3d cc d4 86 3d
       0.1537823 0.11182031 0.09228246 0.065835565
000130 28 a6 96 bd 7e 80 3f 3e 0c 05 b8 3d a8 34 ce 3d
       -0.073559105 0.1870136 0.089853376 0.10068637
000140 b0 9f cb bc f0 55 d3 3d ac 4c 4d 3d 7f 73 df bc
       -0.024856418 0.10319126 0.050121948 -0.027276753
000150 44 32 e1 bd 9a 12 94 bd fd 58 2a be df 7f 9c 3d
       -0.109959155 -0.072301105 -0.16635509 0.07641577
000160 98 dd 86 bd f3 b0 83 3d 6a f7 42 3d 6d 4e 38 bd
       -0.065852344 0.06430235 0.047599234 -0.044996668
000170 7f 26 b8 bd d9 0d 0b bd 4c 3f 06 be 78 bb 07 3d
       -0.089917175 -0.033948753 -0.13110083 0.03313777
000180 93 94 3e bd f4 74 27 3d eb ae db bd 29 63 26 be
       -0.04652841 0.04088302 -0.10726722 -0.16248764
000190 2c 50 9d bd 21 f9 ba 3c c1 33 da bd 45 49 c7 bd
       -0.07681307 0.022823872 -0.106544025 -0.09730772
0001a0 64 f5 71 3d d5 c1 b1 bc 80 cb ff 3d 7c d5 05 be
       0.059071913 -0.021698872 0.124899864 -0.13069719
0001b0 1a 77 1a bc cc d5 9f bd 22 d9 a3 bd e4 69 d8 bb
       -0.00942781 -0.078044504 -0.08000399 -0.00660442
0001c0 c3 1e 09 3d f0 3c 3d bd 5e 0a 03 3d 61 19 c0 bd
       0.033476602 -0.046200693 0.03199231 -0.09379841
0001d0 47 72 37 bd 69 88 00 be 47 d2 a6 3c 98 50 3e be
       -0.044786718 -0.12552036 0.02036394 -0.18585432
0001e0 00 ec 9f bc eb fe db bc 91 54 04 be 73 5e 09 be
       -0.019521713 -0.026854953 -0.12922885 -0.13414936
0001f0 24 a9 b7 bd d7 2a a5 bd 13 d8 a3 bc a5 20 6a be
       -0.08967808 -0.08064812 -0.020000493 -0.22864015
000200 8e 2e 31 3c d7 31 4c bc ef 33 a9 3d 27 09 36 be
       0.010814322 -0.012463055 0.08261859 -0.17776929
000210 24 3a 8b bd 25 40 af 3c e8 b4 6e 3d 6f a6 4f bd
       -0.06798199 0.021392891 0.058277994 -0.050695833
000220 a4 a7 4f 3d f1 2d 06 be 0e f8 de 3d 0f fb 90 bd
       0.050696984 -0.13103463 0.108871564 -0.070791356
000230 89 fc 19 3d 7c d9 e4 3d 24 d4 55 3d 44 75 d1 bc
       0.037594352 0.11174294 0.052204266 -0.025568612
000240 4a d7 14 3e d1 9e 9d bd c6 42 41 bd 00 ed d6 bd
       0.14535251 -0.076963075 -0.04718282 -0.10494423
000250 3c f2 5e bd 53 5e e6 3c 42 ea 70 3d 25 d3 c9 bd
       -0.05443023 0.02812115 0.058817156 -0.09854726
000260 a3 6b fc 3d 31 9f 0c be ca 77 e8 3d 85 a3 b6 3d
       0.123252176 -0.13732602 0.11350973 0.089179076
000270 f8 98 d9 bd bb a6 8f 3b 75 0f 27 3e 99 6c 35 bd
       -0.106248796 0.0043838895 0.1631449 -0.04429302
000280 21 66 ef 3d ea 62 89 3d 3f d4 9f bd ae e5 90 bd
       0.116894014 0.067083195 -0.078041546 -0.07075058
000290 c7 59 82 3d d4 41 cd bd 6c ae 01 3e e8 c3 e8 3d
       0.0636478 -0.10022321 0.12664193 0.11365491
0002a0 01 29 c0 bb e6 d3 b9 3d 56 b2 c9 3d 5c 92 a9 3d
       -0.005864263 0.090736195 0.09848468 0.08279869
0002b0 13 2f 3a bd 18 32 cd 3c 3f 96 fe 3d 87 50 4f 3d
       -0.04545505 0.0250483 0.12431001 0.050613906
0002c0 5c a5 af bd 68 86 36 3d 66 ed 44 be 3d ad 6c bd
       -0.08576462 0.044561774 -0.19231185 -0.0577824
0002d0 f2 e1 98 3b 2b c8 87 3d 53 06 62 bd 2d a6 a8 3d
       0.0046656067 0.06629976 -0.055181812 0.082348205
0002e0 e7 53 58 be f3 85 c6 bd 9a 7d d8 bd 42 19 03 be
       -0.21125756 -0.096935175 -0.105708316 -0.12802604
0002f0 7c ae b1 bd cd 50 5e 3d cb 54 e7 bd 12 34 e1 3d
       -0.086758584 0.054276276 -0.1129547 0.1099626
000300 f0 4d 92 3c ea ab 94 3d 5b 5c ff 3d 7a 59 49 bd
       0.01785943 0.072593525 0.12468787 -0.049157597
000310 9b 75 1c 3d 77 a7 00 3e e4 94 30 3e 5e 35 29 3e
       0.038198095 0.12563883 0.17244297 0.16524264
000320 bd 79 90 3b 83 ad 1e bc 91 f3 c5 3d b8 84 42 bd
       0.0044090436 -0.009684923 0.09665597 -0.04748985
000330 de de 33 3e 07 e6 e1 3d d3 17 15 bc a7 0a 03 3e
       0.17565486 0.11030202 -0.009099918 0.12797032
000340 02 16 4d 3d 8a ca b8 3c 66 a4 19 be 36 85 ac 3c
       0.050069816 0.022557516 -0.1500412 0.021059614
000350 ac c7 37 bd f6 91 d4 3d 29 7c ad 3c 7d 8c bf bd
       -0.044868156 0.10379402 0.021177368 -0.09352968
000360 e9 43 10 bd ab f3 08 be ff 48 93 3d 57 2b 95 bd
       -0.035221014 -0.13374202 0.07191657 -0.07283657
000370 6c fc f4 bc e1 41 d3 3d 41 64 87 bd 0b 7b ee bc
       -0.02990552 0.103153 -0.06610919 -0.029111406
000380 0f 3c d3 3c 32 45 f6 bd 84 98 fa bd 36 87 e9 3a
       0.025785474 -0.12024917 -0.12236121 0.0017816785
000390 6a 4c 0d be 11 cd 0c 3d 71 80 f8 bd 49 e6 f2 bc
       -0.13798681 0.034375254 -0.12133873 -0.029650824
0003a0 9d b2 5b bd 29 7d d3 bc 35 66 ab 3d aa 27 c5 bd
       -0.053637136 -0.025816517 0.08369104 -0.09626706
0003b0 37 91 20 be e0 c5 b8 bd e4 67 05 be 2b cd a9 3d
       -0.15680395 -0.09022117 -0.13027912 0.08291086
0003c0 d9 ef a4 bd bc df de 3d 5b 48 84 3d f9 9b 36 bd
       -0.0805356 0.10882518 0.06459113 -0.04458234
0003d0 3f 33 0b 3e 60 c9 4b 3d c8 f1 30 3e ae 29 38 3e
       0.13593768 0.049752593 0.17279732 0.1798465
0003e0 90 38 9d 3c 8b a1 17 3e 7c 66 63 3d e7 ba 24 3e
       0.01919201 0.14807718 0.05551766 0.16086923
0003f0 46 6b 07 be a3 6d 34 bd 44 72 1c 3e 26 dd 54 3e
       -0.13224515 -0.04404987 0.15277964 0.20787486

bias f4 [16]
000000 73 f7 86 bd d4 05 22 ba e4 ed f6 3d de b6 34 3d
       -0.06590166 -0.0006180678 0.12057093 0.04411971
000010 01 99 21 bd 13 c1 86 bd dd d1 0b 3d 8f 52 af bd
       -0.039452557 -0.06579795 0.034135688 -0.08560669
000020 f5 27 51 3e e5 2b c7 bd 7a 39 8c 3b f9 82 2b bd
       0.20425399 -0.09725169 0.0042793127 -0.041872952
000030 a9 68 bd bd 4d 9a db bd e0 68 38 bd b7 f3 f2 3d
       -0.09248478 -0.1072279 -0.04502189 0.11862891

weight f4 [16, 16, 3, 3]
000000 09 d3 53 be 0e bd b6 bd 0a b9 29 be f1 9b 4b bd
       -0.20685972 -0.08922778 -0.16574493 -0.049709264
000010 4c 70 ae bc 44 62 8a bd 62 ea 2f be a3 57 96 bd
       -0.021293782 -0.06757024 -0.17179254 -0.07340934
000020 da 5b a0 bc f6 72 67 bd e2 53 d4 3d 90 1c 83 3d
       -0.019575048 -0.05650612 0.10367562 0.06401932
000030 29 6a ed bc 95 38 56 3d a8 d6 8e 3d af 14 2c bd
       -0.028981285 0.052300055 0.06974536 -0.042011913
000040 a2 b0 4c 3d 33 06 13 3d b7 b7 d4 bd 28 fa d5 bd
       0.049973138 0.035894584 -0.10386603 -0.10448104
000050 42 2d cc 3d f6 8f 7a bd 77 78 56 bd 90 e6 16 bd
       0.0996957 -0.061172448 -0.052360978 -0.036840975
000060 4b e0 c5 bd d7 a3 5f 3d 57 f1 cb bd 54 9b 30 3e
       -0.09661921 0.05459961 -0.09958141 0.17246753
000070 22 2a 26 3e 75 65 29 3e 35 af 29 3e 39 61 8e 3d
       0.1622701 0.16542609 0.16570742 0.069521375
000080 3c be 2a 3c bb 84 b2 3d a5 f6 cc 3d 4d 90 63 bd
       0.010421332 0.087167226 0.10007981 -0.055557538
000090 20 eb e9 3a d2 cc c6 bb 16 d6 0e 3d 7f 49 6b bc
       0.0017846562 -0.006066897 0.034872137 -0.014360785
0000a0 d8 ad dd 3d eb 6b e1 3d d6 06 77 3d 76 77 78 3d
       0.10824174 0.11006912 0.060309254 0.0606608
0000b0 ef 15 67 3d 74 84 81 bd 5c 66 ca 3d a1 0b 68 3c
       0.056417402 -0.063240916 0.09882805 0.014162929
0000c0 ec 62 d1 bd c3 24 1a 3e 94 b7 24 3e de c0 6f 3d
       -0.10223946 0.15053086 0.16085654 0.05853354
0000d0 9b 8a 15 3e 5b 44 df 3d 5a f7 17 bd 36 b0 23 3d
       0.14603655 0.1090171 -0.037101127 0.03996297
0000e0 44 d7 1e be f6 1f 36 be 5d 1b 00 3d dc 92 ed 3b
       -0.15511805 -0.1778563 0.031276096 0.007250173
0000f0 27 23 1e 3d 2d 03 13 3b e0 d1 87 3d 7a 1d 87 3c
       0.038607743 0.0022432313 0.06631827 0.016493548
000100 15 46 c1 3c ff fc 9f 3c 0a 0b c0 bc 40 60 40 bc
       0.023592988 0.019529818 -0.023442764 -0.011741698
000110 dd 7b 64 3d d7 92 b3 3c f5 3e 14 be a3 ec 42 3d
       0.055782188 0.021920605 -0.14477141 0.047588956
000120 2d 6e b4 bd 3f dd 1e be 9f 8e 11 be 6a 95 fc bd
       -0.08810077 -0.15514086 -0.14214562 -0.12333186
000130 7d 3e 2e bd 02 8e 03 be d7 6e 0f be 6c 05 3c bd
       -0.042540062 -0.1284714 -0.14007126 -0.04590361
000140 91 a4 2d be 07 70 64 3d a1 5a 98 3d a8 27 25 3e
       -0.16957308 0.0557709 0.07439161 0.16128409
000150 f3 3c 1b 3e 50 b5 fa 3b 11 29 c0 3d 86 8b c4 bc
       0.15159969 0.0076510087 0.09382833 -0.023992311
000160 15 72 a1 3d 8a 7d f6 3d 3a 48 ac 3c 38 93 62 3d
       0.078830875 0.120356634 0.021030534 0.05531618
000170 f5 eb 6b bd 8e 67 80 3c 6f d2 0d 3d 50 fd fc bc
       -0.057598073 0.015674379 0.034624513 -0.030882508
000180 ef 11 0f be fa 76 c2 3c 3f 09 0b bc ba 6a ff 3a
       -0.13971685 0.023738373 -0.008486091 0.0019486763
000190 e3 85 a6 bc e3 99 13 bd 3b ab a4 3d e1 37 b5 3d
       -0.020327514 -0.03603543 0.08040472 0.08848549
0001a0 dd 57 c8 3c d7 37 0c be 6d d6 b5 3d 8f 05 db bc
       0.024455959 -0.13693176 0.08878789 -0.026736049
0001b0 fc f7 25 3d c9 85 51 3d 10 a7 c3 3c 89 2f a2 3d
       0.0405197 0.051152978 0.023883373 0.07919223
0001c0 cc 25 2e 3d 6c f7 30 3c 79 d2 e9 bd 76 4d c8 3d
       0.042516515 0.0108011775 -0.114170976 0.097803995
0001d0 1d 55 a6 bd 65 42 3a bd f7 7b 33 3d e8 35 58 3c
       -0.08121703 -0.045473475 0.043819394 0.013196446
0001e0 40 15 0b 3d be 27 49 3d 2c 05 bb bd 58 42 74 bc
       0.033955812 0.049110167 -0.09131846 -0.014908396
0001f0 31 e2 be bc 17 34 0f 3c 92 85 55 3e 09 bb 2d 3d
       -0.023301216 0.0087404465 0.20851734 0.0424147
000200 86 8b 10 3e ab 47 73 3c ee 3f 1c 3d fe 1a 5b bd
       0.14115724 0.01484863 0.038146906 -0.05349254
000210 70 e5 70 bd db 58 21 3e f8 f8 42 3e 06 e4 49 bd
       -0.05881256 0.15756552 0.19040287 -0.049289726
000220 f0 47 b0 bd ae e5 8e 3d a0 a9 3f bd 3c 02 5d 39
       -0.08607471 0.06977402 -0.046792626 0.00021077035
000230 da 8f c1 bc b5 09 03 3e 8b 4e 0c 3d 14 3e 73 bd
       -0.023628164 0.12796672 0.034254592 -0.059385374
000240 3a eb 3b be 41 e9 b2 bc ed f6 d3 bd 2c 04 f1 bb
       -0.1835145 -0.02183974 -0.10349832 -0.0073552337
000250 ce 14 aa bd e9 7d 0d be 6e 6b b7 bb 44 c5 8a bc
       -0.083047494 -0.13817562 -0.0055975234 -0.016939767
000260 c9 44 2c be b5 a7 f0 bd 54 63 fa bd b6 4f 0c 3d
       -0.16823114 -0.117507376 -0.122259766 0.034255706
000270 26 4b 2b bd 39 5c f5 3c 76 a0 68 3b bf 98 03 be
       -0.041819714 0.029951202 0.0035496033 -0.12851237
000280 3d 47 dc 3c 7b 28 f1 bd 4a d7 00 be c9 48 a5 bc
       0.026889438 -0.11775299 -0.12582126 -0.020176308
000290 65 2f 84 3d 00 c0 73 bd db 7c 80 bc 3b f1 6f bd
       0.06454352 -0.059509277 -0.015684536 -0.058579665
0002a0 2a f8 0c be f7 40 8f bc a5 15 9f bd 77 37 0e 3e
       -0.13766542 -0.017487032 -0.077678 0.13888346
0002b0 d8 1a bf bd fa df ba bd 39 81 9a 3c 78 b2 06 3e
       -0.09331292 -0.091247514 0.018860446 0.13154018
0002c0 f9 0d 73 3d fe b4 25 bd bb 55 16 3e ff d0 17 3e
       0.059339497 -0.04045581 0.14681141 0.1482582
0002d0 b7 94 f1 3d d8 9e 7a 3d 80 b5 66 3d e4 d0 07 3e
       0.11795943 0.06118664 0.056325436 0.13263279
0002e0 e6 04 9d 3c 82 ba 94 bd bc b2 cb 3d 8b 40 09 bb
       0.019167375 -0.07262136 0.099462 -0.0020943012
0002f0 4f db 98 3d 49 42 ff 3d 40 55 6c 3d 60 c8 49 bb
       0.07463705 0.12463815 0.05769849 -0.0030789599
000300 47 14 0d 3e eb 11 1b 3e 2e 4d 10 3d 6f 35 d5 3d
       0.13777266 0.15143554 0.035229854 0.10410582
000310 cc d3 96 bd da ae 8d 3d 9c 07 bb bd 34 2a 40 3d
       -0.07364616 0.06918116 -0.09132311 0.046915248
000320 33 88 82 3d 58 fa 5e 3c 50 78 0c 3d ad df eb 3c
       0.06373634 0.013609491 0.034294426 0.02879318
000330 9f 28 1d be 2e f3 1c be 45 cb f9 bd dc 6c 48 3d
       -0.15347527 -0.1532714 -0.12196974 0.04893194
000340 5b 55 30 3d e7 ad 36 be 73 db 11 be b1 d6 82 bd
       0.04305015 -0.17839776 -0.1424387 -0.063886054
000350 96 79 5c 3d 49 c6 33 be 2a 7a 2c be 82 2d 35 be
       0.05382689 -0.17556109 -0.16843477 -0.17693141
000360 8b fb 2d be 0f a9 a2 bd 13 2b 08 be ef 67 aa bd
       -0.16990487 -0.079424016 -0.13297682 -0.08320605
000370 57 b2 e5 bd 43 e2 fb bd 9f 24 23 be 25 1f 13 be
       -0.11215656 -0.122990154 -0.15931939 -0.1436735
000380 f4 58 d6 bd 67 a6 8b 3d 6f 4a 2d bd f1 18 14 3e
       -0.10466185 0.06818848 -0.042307314 0.1446264
000390 8a 97 18 3d 19 08 82 3d 60 f4 6c 3d 79 18 ee 3c
       0.037253894 0.06349201 0.05785024 0.029064404
0003a0 fc b9 05 3d 24 65 e0 3d a7 8c 1d 3d d0 ae 67 3d
       0.03264807 0.10956791 0.038464215 0.0565632
0003b0 f8 18 e8 3c 36 ca 9f 38 b9 65 8f bc 6b ce 28 be
       0.028332219 7.6193755e-05 -0.01750456 -0.16484992
0003c0 71 ee bc 3c 4d 0a ff bd b2 1c bd bd 37 9c c8 3d
       0.023062916 -0.124531366 -0.09233989 0.097954206
0003d0 15 e0 75 3d bf b4 cf bc 92 f1 83 3d 4f 33 16 be
       0.060028154 -0.025354741 0.0644256 -0.1466801
0003e0 ea ab 06 be fa a1 0c be d6 6d d9 bd 2f f9 bc 3d
       -0.13151518 -0.13733664 -0.10616653 0.092272155
0003f0 e1 85 01 3a d1 1f 9e 3d 79 65 3d 3d cf d0 c2 3d
       0.0004940909 0.07720912 0.04623935 0.09512483

bias f4 [16]
000000 05 f8 48 3c 4a b0 55 bc 0d 5e 1e 3e 62 ac f7 3d
       0.012266164 -0.013042519 0.15465565 0.12093426
000010 89 6b c5 3d 63 95 d1 3d 81 96 28 bd 4c e6 0f 3e
       0.09639651 0.102335714 -0.041159157 0.14052695
000020 bd 14 5b bc 20 1a a6 3d 3f 62 a4 bc ce 0b 03 3d
       -0.013371644 0.08110452 -0.020066379 0.03199368
000030 4a 8d 11 3e 2c 7e f3 3d 77 ea a3 3d ab f9 c1 bc
       0.14214054 0.118893 0.08003705 -0.023678621

weight f4 [12, 4096]
000000 04 9e c9 bb f9 1a ab bc b8 9e e7 bb 57 99 c2 bb
       -0.00615287 -0.020886885 -0.0070684813 -0.0059386897
000010 40 50 a1 b9 11 f3 a1 bc 04 7a 2e bc 49 79 d0 bb
       -0.00030768104 -0.019769223 -0.010649208 -0.0063621146
000020 d6 7e 1b ba 90 2b d8 3b fe c0 0f 3b 1c 62 1c 3b
       -0.0005931681 0.00659699 0.00219351 0.0023862189
000030 14 29 9b bc 9b 80 86 bc ea 74 65 bb a3 07 ab 3b
       -0.018940486 -0.016418746 -0.0035012313 0.005219416
000040 0f dc a0 bc 17 5e 71 bc a0 ca 6b bb 68 6d a5 bc
       -0.019636182 -0.014731905 -0.0035978928 -0.02019377
000050 65 8b 38 bb da 09 98 bc 7f c4 7e bb f9 f4 29 bc
       -0.0028159257 -0.018559385 -0.0038874445 -0.010373347
000060 46 ce 49 bc 4c e4 46 bc 78 4a 9e bc ab 2d 04 bc
       -0.012317246 -0.012139391 -0.019322619 -0.008067529
000070 90 62 ee bb fd 0f 5c bc 59 a5 06 3b 63 3d 52 bc
       -0.007274933 -0.013431546 0.0020545332 -0.012832019
000080 ef 92 a7 bc 70 26 d6 bb e7 35 66 bc 7e 37 af 3b
       -0.020455806 -0.006535344 -0.014050937 0.0053471914
000090 5f 92 0c 3c 5d 52 b7 bb a8 2e 4f bc ae 84 16 bc
       0.008579819 -0.0055945353 -0.012645401 -0.009186907
0000a0 ce 61 e4 3a 12 81 9a bb 2f f2 8e bc 6f d6 7b bb
       0.0017424168 -0.0047150934 -0.017449467 -0.0038427373
0000b0 36 2c 3e bc 0e bc 09 bc cb 3f 5f 3b 3e 78 6f bc
       -0.01160722 -0.008406652 0.0034065123 -0.01461607
0000c0 c4 1e 35 3b f6 aa 68 bb 6d 11 c6 bb d9 41 9d bc
       0.0027636746 -0.0035502291 -0.006044558 -0.019196438
0000d0 ed 53 b8 3a 10 3e 38 bc ca 37 eb 3b 19 86 9a bc
       0.0014063098 -0.011245266 0.0071782814 -0.01886277
0000e0 59 c6 92 bc 79 33 6c bc a2 2e 88 3b d1 ec f9 3b
       -0.017916845 -0.014416569 0.0041559497 0.0076271077
0000f0 28 87 a9 bb bb 16 a6 bc 71 f5 ee b9 e2 c3 7c ba
       -0.0051735826 -0.02027451 -0.00045577766 -0.0009642226
000100 ba 64 05 3b 25 2d 35 bc 81 da 95 bc a7 79 2e bc
       0.0020354227 -0.011058127 -0.018292667 -0.010649121
000110 b0 a5 f3 bb 4e 9e 93 bc 9a b9 6b bc ec 13 59 3b
       -0.007435523 -0.018019821 -0.014387513 0.0033123447
000120 1a 88 0e 3c 8b 9f 9d bb 00 59 7e bc 0b b9 00 bc
       0.008699441 -0.004810279 -0.015524149 -0.007856618
000130 67 3e a0 bb c4 43 fe bb 8b 7c 22 bc ff 8f 8b 3b
       -0.0048902514 -0.007759543 -0.009917389 0.004259109
000140 ab 6a af 39 87 62 f8 3b ef 60 b1 3b f3 a1 0f 3a
       0.00033458075 0.0075801047 0.0054131667 0.00054791494
000150 36 b1 69 bc a8 a4 07 3b 69 25 9d 3b ef e3 28 bc
       -0.014263442 0.0020697508 0.0047957194 -0.01030825
000160 3d c0 64 bb 2e f0 9c bc 7f 5b 13 bc 0e 42 c3 3b
       -0.0034904622 -0.019157495 -0.008993982 0.005958802
000170 ab 06 fe ba 66 3a d3 3b 87 20 d0 bb 52 ed ac bc
       -0.0019380649 0.0064461706 -0.006351534 -0.021109257
000180 13 71 ca 3b 1c 27 86 bc f0 1b 7c bc 15 5e 02 3c
       0.0061780303 -0.01637607 -0.01538752 0.007957001
000190 90 fb 8a bc 7e d6 8e 3b bf 83 ad bb 11 ec a0 bc
       -0.016965657 0.0043590656 -0.0052952464 -0.019643815
0001a0 49 09 1f 3b 30 e1 0c 3c d7 c6 32 bb 6c 16 0c bc
       0.002426701 0.008598611 -0.0027279162 -0.008550268
0001b0 dc 11 14 3a c1 c9 7d bc 70 1e 5d bc c7 77 3c bc
       0.0005648413 -0.015489996 -0.013496026 -0.0115031665
0001c0 2a 41 11 3c e9 55 11 3c 22 5c b6 ba c3 f6 8f ba
       0.008865634 0.00887058 -0.0013912956 -0.0010983575
0001d0 36 40 27 3a 88 f8 74 39 9d 56 da 3b 44 86 93 bb
       0.00063801126 0.00023362238 0.006663157 -0.0045020897
0001e0 ba 2a f2 3b ee ed 72 3b 8e b8 d7 bb cb ad b2 3b
       0.0073903473 0.0037068087 -0.00658328 0.0054528466
0001f0 81 cd 08 3c 9a 53 8b bc 20 e3 de ba 19 bd fc bb
       0.008349777 -0.017007638 -0.0017004944 -0.007712972
000200 84 17 85 bb 9a 1b d7 ba 0f 0b 78 3b 03 62 f7 3b
       -0.004061641 -0.0016411424 0.0037848388 0.0075495257
000210 d3 64 5b bc 1e 16 34 3b ab 21 26 3a 0e 8e 44 bc
       -0.013390738 0.0027479003 0.00063374144 -0.011996759
000220 32 49 e4 ba 2d bc ae bc 37 89 98 3b 59 03 3b bc
       -0.0017416833 -0.021329964 0.004655029 -0.011414372
000230 b4 a4 d5 bb 1f 71 53 bc 82 c4 61 bb 67 35 4b bc
       -0.0065198783 -0.012905388 -0.0034449403 -0.012402869
000240 df 10 f7 3b b9 e9 1f bc 95 98 02 bc 6a 7c 1a bc
       0.007539853 -0.009760314 -0.007970949 -0.009429077
000250 78 33 a1 bc 2b d1 c7 3b 4f 3c 76 bb 7a 1a 02 3c
       -0.019677863 0.006097933 -0.0037572568 0.007940883
000260 a0 ce 2f 3a 29 eb 3f bc 78 87 bb 3b d7 f0 81 bc
       0.000670651 -0.011713781 0.0057229362 -0.015861912
000270 7d 84 90 3b d8 37 d3 3a c4 6b 0c 3b 73 b2 e3 3b
       0.004410325 0.0016114665 0.0021426538 0.006948763
000280 9b d2 de bb c3 26 91 3b 44 71 0f 3b 3b 12 29 bc
       -0.0068000085 0.0044296696 0.002188758 -0.010319288
000290 7f e4 96 bc da 87 1c ba 3c ec 5d bb ab 09 d9 bb
       -0.018419502 -0.0005971171 -0.003386273 -0.006623467
0002a0 0c 6b 06 bb 99 17 e1 3b 49 40 ec 3b c2 5b 50 bc
       -0.0020510582 0.006869268 0.007209812 -0.012717189
0002b0 92 10 d1 3b db e0 90 bc 82 ec ab bc da 3e 0f bc
       0.006380149 -0.017685344 -0.0209868 -0.008743012
0002c0 01 2e d6 ba fd c6 f9 3b 39 d0 0e bc a1 b5 1b bc
       -0.0016340615 0.007622598 -0.008716636 -0.009503753
0002d0 f9 1d 8d bc cb 41 13 bc be aa 19 bc 44 41 07 3c
       -0.017226206 -0.008987854 -0.009379087 0.008255307
0002e0 f6 e3 50 bc b5 96 4b bc 15 81 ac bc 0c eb 48 bb
       -0.012749663 -0.012426068 -0.021057645 -0.0030657677
0002f0 de 3c f6 bb 0a fe c2 bb 63 b4 1e bc ff 94 31 bc
       -0.00751458 -0.005950694 -0.009686562 -0.010838746
000300 24 d8 16 bc 69 6f d7 bb 22 4b 87 bc e9 1a b8 3b
       -0.009206805 -0.0065745604 -0.016515318 0.0056184423
000310 14 f6 50 ba 77 f9 b3 3b d3 1d 1c bc cd 7b 02 3b
       -0.0007971239 0.005492385 -0.009528595 0.0019910217
000320 5b 86 8e ba fd 62 a6 bc 1a 0d 04 bc 77 bc 86 bb
       -0.0010873781 -0.020310873 -0.008059764 -0.004111822
000330 49 e9 85 bb ef 84 a5 bb ef 15 71 bb 77 4c a0 ba
       -0.0040866476 -0.0050512473 -0.0036786755 -0.001222982
000340 89 31 9e bb 5b 24 03 bc 17 cc c5 3b d8 87 44 bc
       -0.0048276824 -0.008004273 0.0060362923 -0.011995278
000350 6d 2a 3a bb c9 e5 8a bc 63 6a 81 b9 b3 18 7d bc
       -0.0028406635 -0.016955273 -0.00024684062 -0.015447783
000360 01 f5 4e bc d1 3b 1c bc 65 87 60 bc 5d b3 ae bc
       -0.012631656 -0.009535746 -0.013704156 -0.021325761
000370 10 2b 83 bc 33 d8 93 bc 3d 28 af bc 81 84 71 bc
       -0.016011745 -0.018047428 -0.021381492 -0.014741064
000380 bb 64 21 bb cb 1b ea 39 ff e1 b0 bc e8 d3 7a bc
       -0.002462669 0.00044652665 -0.021592138 -0.015309311
000390 32 49 81 bc b9 54 6d bc 77 ee b8 ba fc 34 8e bb
       -0.015781973 -0.0144855315 -0.0014109154 -0.0043398123
0003a0 ed 71 8e bc ea 0b 68 bc 4f 6f 98 bc 8b d8 ab bc
       -0.017388308 -0.014162997 -0.018607764 -0.02097728
0003b0 6e f1 5b bb ff 4b 85 bc 73 a4 d1 ba f6 51 a7 bc
       -0.0033560651 -0.01627159 -0.0015994444 -0.020424824
0003c0 16 2a 97 bc 33 1c a1 bc 68 8a 56 3b 6b 80 29 bb
       -0.018452685 -0.019666767 0.0032736305 -0.0025863897
0003d0 0c b1 53 bc 9e 5f 9e bc b8 f1 2b bc 2e af d2 3b
       -0.012920629 -0.019332703 -0.010494642 0.0064295745
0003e0 ad ff 8c bc 87 33 78 bc cf e2 fc 3b 7e 8e 9a bc
       -0.01721176 -0.015149004 0.0077174674 -0.018866774
0003f0 80 7e 21 bc 37 ea ab bb f4 ea 56 bb 70 90 95 bc
       -0.00985682 -0.0052464264 -0.0032793852 -0.01825735

bias f4 [12]
000000 0b 25 f3 3b 21 a7 39 3b b4 eb d4 ba b3 5b 10 3c
       0.0074201874 0.0028328376 -0.0016244561 0.008810925
000010 19 ae 1a bc 0d 6a 3f 3d 5a a4 0f ba e5 db 95 bc
       -0.009440922 0.046731997 -0.00054795074 -0.01829333
000020 45 4f 82 bc f6 c9 02 3d e0 02 53 bb 1f fc 93 3b
       -0.01590694 0.031930886 -0.0032197759 0.004516139

weight f4 [12, 12]
000000 b0 7b 3b 3e 3e eb 40 be 7e 78 06 be 26 f1 95 3d
       0.18308902 -0.18839738 -0.13131902 0.07321386
000010 c3 3b d4 3d db eb b9 3e c5 1a 04 bd 63 8a 77 3e
       0.10362961 0.36312756 -0.032252092 0.24173884
000020 52 1b 8c be 15 3f e3 3d d1 75 00 3e 0b cd b7 bd
       -0.27364594 0.11096016 0.12544943 -0.08974656
000030 1f 98 47 be a4 36 4a 3e 0a b5 ce 3d 4d a1 92 be
       -0.19491623 0.19747406 0.10093124 -0.28638688
000040 8f 5d 4b be af 1c 1e be 11 ac 45 3d c7 7b 53 be
       -0.19859909 -0.1544063 0.0482598 -0.20652686
000050 03 1d 48 3c 2a 14 c1 bd 45 e5 60 3e e4 e5 44 be
       0.012213948 -0.09427674 0.2196246 -0.19228321
000060 a7 41 80 be e0 f1 8c 3e b5 df 1d be 30 70 fc 3c
       -0.2505009 0.27528286 -0.15417369 0.030815214
000070 f7 18 91 3d 20 d0 24 be a4 34 33 be 70 a9 69 be
       0.0708484 -0.16095018 -0.1750055 -0.22818542
000080 61 9e 29 be e7 21 32 bd c0 0b 6b be 73 9f 92 3e
       -0.16564323 -0.043489363 -0.22953701 0.28637275
000090 3e ab 85 be d0 f6 b5 bd bf 5f 26 bd 0f 3a 56 3e
       -0.2610721 -0.088849664 -0.040618654 0.20920585
0000a0 ec fa c5 3d 68 5b 8a be b1 42 02 be 62 9f a8 3d
       0.09667 -0.27022862 -0.12720753 0.08233525
0000b0 b5 3f 8b be 13 1f 3c be 64 5f 6a 3c 57 da 8c 3d
       -0.27197042 -0.18371229 0.014304969 0.068775825
0000c0 ce a3 a1 3d d6 7e 9c 3b 47 50 4f be 6c c3 54 be
       0.078925714 0.004775862 -0.20245467 -0.20777673
0000d0 4f 28 51 3d c8 35 28 be 69 a3 61 be 99 3e 59 bd
       0.051063832 -0.16426766 -0.22034992 -0.053038213
0000e0 de 02 21 3e da 25 0d be 6e ed 83 3e f1 8e 7a 3e
       0.1572375 -0.1378397 0.25767082 0.2446859
0000f0 77 d3 08 3d c7 76 4f 3e 6b b6 41 bd 87 3c aa 3d
       0.033404794 0.20260154 -0.047293108 0.08312326
000100 0d c6 51 3e aa 57 ad bd dd c0 16 be aa c1 b6 3d
       0.20485707 -0.08463986 -0.14722009 0.08923657
000110 48 a5 2e 3e 41 a9 cc bc bb ec 5a 3e 58 8d 40 bd
       0.17055237 -0.02498305 0.21379368 -0.047009796
000120 35 bf 54 be 7f 6f 40 be 89 91 3e be 8f b6 48 be
       -0.20776065 -0.18792532 -0.18610205 -0.1960089
000130 a1 f6 2d be c4 fc 6d bd a3 66 84 be d4 8f 47 be
       -0.16988613 -0.058102384 -0.25859556 -0.1948846
000140 57 39 7e bd b0 d5 5f bd 40 65 7d be 12 d1 37 bd
       -0.062066402 -0.054647148 -0.24745655 -0.04487712
000150 3e c3 3d be 96 c9 ca 3d 5f 0b 20 3d e0 15 8a be
       -0.1853151 0.09901731 0.039073344 -0.26969814
000160 0f 1e 81 be 77 78 21 be e6 32 91 be f0 f1 8d 3d
       -0.25218245 -0.1576861 -0.28359145 0.069309115
000170 ed 89 90 3d 27 3c 6e be 71 07 58 be c7 d3 b1 bc
       0.07057557 -0.23265134 -0.21096589 -0.021707429
000180 72 2d c7 3d 7b 0c 74 bd 7f d9 a6 3d 3b 84 09 be
       0.09725465 -0.059582215 0.08146953 -0.13429348
000190 90 6d f2 bd 2b 87 9e 3e 0c 9f 5b 3e 9f 2e 7c be
       -0.11837304 0.309625 0.2144739 -0.2462716
0001a0 aa 8f 8f 3d b0 40 cc 3d 11 87 8e be 59 8d b8 3d
       0.070098236 0.09973276 -0.27837422 0.09011335
0001b0 a8 be 20 3d 92 af 91 3e 94 ea 01 be d1 78 76 be
       0.039244324 0.28454262 -0.1268714 -0.24069525
0001c0 ec 11 21 bd 5f d9 2f be b8 af 55 bd 31 a2 86 3e
       -0.039323732 -0.17172764 -0.05216953 0.26295617
0001d0 e4 5e 89 3d 7c e7 4e bd 1f 5e 83 3e 35 93 66 be
       0.06707552 -0.05051373 0.25657746 -0.22517093
0001e0 e3 9e 21 3b 1b df 39 be 51 78 23 bd 59 c9 9d bd
       0.0024661354 -0.18151514 -0.039909665 -0.0770442
0001f0 00 21 04 be 0e 0e d7 bd 59 a1 8c be 3e 10 4d 3d
       -0.12903214 -0.105007276 -0.27466848 0.050064318
000200 99 9a 53 bd b1 aa 92 3e 9d 09 de bb 71 29 57 be
       -0.051661108 0.28645852 -0.0067760483 -0.21011902
000210 d6 3d 9f bd 78 73 b7 3d e1 00 2f 3e 7c 89 86 be
       -0.07775466 0.08957571 0.17090179 -0.26276767
000220 51 91 27 3e e5 3c ba 3d ee a6 16 3d 67 ea a8 3c
       0.16364028 0.09093646 0.03678029 0.020619584
000230 99 93 37 3d 55 4a 79 3e 77 da 89 bb 0e 04 2d 3d
       0.044818494 0.24344762 -0.0042069512 0.042240195

bias f4 [12]
000000 42 0f 33 be 39 0d 39 be 72 fc 89 be bd a5 5c 3d
       -0.17486289 -0.1807145 -0.26950413 0.053868998
000010 6b 1e 12 3c 02 87 78 3d f4 46 98 3d 33 c7 29 be
       0.008918385 0.06067563 0.07435408 -0.16579895
000020 22 80 e0 bd 3e 86 2b be 60 9c 95 3e 59 95 cb 3d
       -0.109619394 -0.16750428 0.29220867 0.09940595

weight f4 [12, 12]
000000 8d c5 2c 3e 31 d2 31 3d 1a 23 33 be 2c 28 8f bd
       0.16872235 0.043413345 -0.17493859 -0.06990084
000010 77 28 de bc 06 f7 8d 3e 6d d1 0e bd 57 0f 20 bd
       -0.027118905 0.27727526 -0.034867693 -0.03907713
000020 66 19 b7 3e 62 63 d5 3d 38 41 e0 bd 40 cf f1 3d
       0.35761565 0.104193464 -0.109499395 0.11807108
000030 4f 4b 96 3e f8 47 f9 3b 7d a4 92 3e 83 a0 6f bd
       0.2935433 0.0076074563 0.2864112 -0.058502685
000040 90 0c 06 be 57 73 75 3e 9a 10 29 be 16 c2 b7 3d
       -0.1309073 0.2396978 -0.16510239 0.08972566
000050 6c f0 a5 3e 39 7c 8c be 2a f2 2c 3e cc e7 ae 3e
       0.3240999 -0.27438524 0.16889253 0.34161222
000060 bb 5a bb 3e 13 5d c4 3d d3 78 69 3e 21 90 d8 bc
       0.3659266 0.09588065 0.22799997 -0.026435914
000070 d8 a3 1f 3e 99 9a b8 3d 23 f6 9f bc 3d 0d df bd
       0.15589845 0.09013862 -0.019526547 -0.10891197
000080 8e bb 95 3e 3f 76 83 3e ac d9 ac 3e c1 f4 54 3e
       0.29244655 0.25676152 0.3375982 0.20796491
000090 ec b4 14 bc a7 1a 1d bd de 8f 61 be 0b 75 51 3d
       -0.009076338 -0.038355496 -0.22027537 0.05113701
0000a0 ab 5f 60 3e ab 39 ba bd 51 04 2b 3e ec f3 d9 3d
       0.21911494 -0.090930305 0.16700865 0.106422275
0000b0 63 48 8a 3e d2 6c 92 be 5e 1c b4 bd 77 b9 84 3c
       0.27008352 -0.28598648 -0.08794473 0.016201718
0000c0 0c f0 73 be 7a 48 7d 3b 2d 61 7c 3d 23 7a 36 be
       -0.2382204 0.0038647936 0.06161611 -0.17820029
0000d0 5a c6 77 bc 2b 4a fb bb e7 26 51 3d b7 84 2c 3e
       -0.015122974 -0.0076687536 0.05106249 0.16847502
0000e0 17 3d 12 be d1 16 9f bd ac 7f bd bd 7e 88 28 3d
       -0.14281116 -0.07768024 -0.09252867 0.041145794
0000f0 8a c9 4c 3d ff 29 91 be 71 b4 0d 3e 85 ea 54 bd
       0.04999689 -0.28352353 0.13838364 -0.051981468
000100 ed d3 71 be f3 44 f2 3d d1 4e 8a 3e f2 c5 68 bd
       -0.23616 0.11829557 0.27013257 -0.0568294
000110 63 be f7 3d 2d 2f 2c 3e f9 a6 8c be c5 d9 81 be
       0.1209686 0.16814871 -0.2747114 -0.25361457
000120 3c be 5c be 79 2d d2 bd a3 37 83 be 6d a0 6f be
       -0.21556944 -0.102625795 -0.25628385 -0.23401041
000130 3e a5 b1 bd d6 03 08 be 4d 42 60 3e 67 15 4e bd
       -0.086740956 -0.13282713 0.21900292 -0.05031338
000140 b0 cf 6f be bc a2 31 3d 03 ca 57 3e 4a 4a 08 3d
       -0.2341907 0.043368086 0.21073155 0.033273973
000150 0e fd 41 3e 2a 8a c4 3d 36 1e 7c 3e d8 55 81 be
       0.18944189 0.09596665 0.246209 -0.25260806
000160 7f 10 5f be af e8 3f be c1 82 86 3e b5 38 b1 3d
       -0.21783637 -0.18741105 0.26271632 0.08653394
000170 f8 07 47 3e 83 d3 ff bd 76 7e 24 3e 06 83 9a 3d
       0.19436634 -0.124915145 0.16063866 0.07544522
000180 fb 20 8f 3e a0 44 a5 bd a4 0b 8f 3e 21 f9 cf 3d
       0.2795485 -0.0806973 0.2793857 0.101549394
000190 f9 02 7f 3e 97 5c 10 be df 4b 5e be 99 b3 6d bd
       0.24903478 -0.1409782 -0.2170863 -0.058032606
0001a0 1c e1 34 be 03 76 b7 3a 50 08 22 3e d9 56 95 3e
       -0.17663997 0.0013996962 0.15823483 0.29167822
0001b0 01 23 03 be ac c8 6b 3e 3b 32 cc 3c 2d f7 2d bd
       -0.12806322 0.23025769 0.024926296 -0.042472053
0001c0 13 87 be bd 8b e1 22 3e 78 1b 88 3e a6 e8 05 be
       -0.09303107 0.1590635 0.26583457 -0.1307703
0001d0 00 97 4f 3d c4 03 91 3e 5c 7e 1a be 2d 7c 71 bd
       0.050681114 0.28323185 -0.15087265 -0.058956314
0001e0 ca d6 9a 3e 59 a4 34 bd 73 21 ca 3d 48 f0 38 be
       0.30241996 -0.044102047 0.09869661 -0.1806041
0001f0 80 76 2d 3d 2b 0b 89 3e d5 ca 40 be b3 4d 34 3e
       0.04234934 0.26766333 -0.18827374 0.17607765
000200 14 e1 1b 3e 73 b4 70 bc d4 bb a0 3e 27 76 d5 bd
       0.15222579 -0.01469146 0.313933 -0.104229264
000210 1f d1 b7 3e 87 68 3c bd 7c 11 00 bd 04 d5 58 3e
       0.35901734 -0.045998123 -0.031266674 0.21175009
000220 d8 38 90 be d2 b5 53 bd 4b d8 15 3e c1 c5 81 3e
       -0.28168368 -0.05168707 0.1463329 0.25346187
000230 bb 22 ca bd d3 dc 64 3e 71 2d aa 3e 59 10 ec 3d
       -0.098699056 0.22349863 0.33237794 0.115265556

bias f4 [12]
000000 3c 8d 76 be 9c a6 1c be 52 58 da 3d ff de 5b be
       -0.24077314 -0.15297931 0.10661377 -0.21471785
000010 ad 47 42 3d f9 e5 a7 bc ba 85 1a 3e ec db 68 be
       0.047431637 -0.020495402 0.15090075 -0.22740144
000020 c2 a8 f6 3d de db 8a be b7 54 22 be 09 b6 26 3e
       0.12043907 -0.2712087 -0.15852629 0.16280378

weight f4 [12, 12]
000000 fd 70 ad 3e 2f d0 b9 3e d3 28 82 3e 95 4a d3 3d
       0.33875266 0.36291644 0.2542177 0.1031696
000010 e5 e4 ad 3d 98 6d 88 be 32 c1 57 3c ec bd b1 3e
       0.08490924 -0.26646113 0.01316862 0.3471521
000020 45 d0 81 3e 7b d8 f3 3c 81 9b 65 3d 61 61 6c 3d
       0.2535421 0.029766312 0.056056503 0.057710055
000030 fc f6 a8 3e fd 49 a6 3e 7e 3d 13 3e 09 ed 82 3d
       0.33000934 0.32478324 0.14378926 0.06392867
000040 0b 1f 3e 3e bc 0d fe bc 20 78 49 be f3 7a 95 3e
       0.1856653 -0.031012408 -0.1967473 0.29195365
000050 c9 2d 7c 3e ea 9d 4a 3e 4d c0 85 3e 19 59 a0 bd
       0.2462684 0.19786802 0.26123276 -0.07829494
000060 55 98 4e 3e fa d4 21 be bb aa e1 bd bb 56 1b 3d
       0.20175298 -0.158039 -0.110188924 0.03792451
000070 0c 6d 82 3e 97 8e 4f 3e b6 1b 16 bc 80 38 59 3c
       0.2547382 0.20269237 -0.00916188 0.0132581
000080 4a 4a 57 bd 23 a7 74 3d 29 85 d8 bc ee 41 83 bd
       -0.052561082 0.059729706 -0.026430683 -0.064090595
000090 be 9b b5 3e 01 4e 00 be d6 82 09 be d4 12 15 3e
       0.35470384 -0.12529756 -0.13428816 0.14557964
0000a0 6b 9a 1c 3e e9 10 db 3d 12 fd 4b bc 08 96 9e 3e
       0.15293281 0.10696585 -0.012450473 0.3097384
0000b0 26 9b 7a 3d 90 94 36 3e e3 1d 9b 3e fa 34 ab 3e
       0.061183117 0.1783011 0.3029624 0.33438855
0000c0 5f e1 32 ba c1 62 9b 3e 7c b7 ca 3d 8c cb 1c be
       -0.0006823744 0.3034878 0.09898278 -0.15312022
0000d0 be 17 84 3e 84 78 4f bd 96 0b a5 3d fd 36 a6 3c
       0.25799364 -0.050652042 0.080588505 0.020289892
0000e0 be 15 bc 3e 6d 0f 88 3e c2 bb 92 3e 31 fc 90 3d
       0.36735338 0.2657427 0.28658873 0.07079352
0000f0 02 8e 21 3e 96 1d 76 3e 03 1f 25 3e fe e8 2a be
       0.15776828 0.24034724 0.16125111 -0.16690442
000100 84 55 58 3e 5c 06 8a bc 97 97 57 bd ea a0 50 be
       0.21126372 -0.016848736 -0.0526348 -0.20373884
000110 36 1d 4e 3e f8 ea 69 be f7 15 02 3e 0e d5 a4 3e
       0.2012833 -0.2284354 0.12703691 0.32193798
000120 77 0d 9f 3d c9 41 02 be 95 1b dc bc 13 79 5b 3e
       0.0776624 -0.12720408 -0.02686862 0.21432905
000130 6c b2 01 3e 4a 60 6d 3e 6a 49 72 be ca 7e 1f bc
       0.12665719 0.23181263 -0.23660818 -0.009734819
000140 1a cb 19 be d1 85 ae 3d 8c 58 4f be 32 d7 8c 3e
       -0.15018883 0.08521617 -0.20248622 0.2750793
000150 c7 10 b5 3e 45 e1 47 3e b0 58 6a 3e 2f b5 02 3e
       0.35364363 0.19519527 0.22885394 0.12764429
000160 fd 53 8a be 45 55 29 be 1a 93 77 be 9d d1 93 3d
       -0.27017203 -0.16536434 -0.24177209 0.07217715
000170 61 e0 ab bd 78 c5 2e 3e 38 52 a5 3b b6 8b a3 3e
       -0.08392406 0.17067516 0.0050452016 0.31942528
000180 06 78 20 3d ee de 7f be b4 03 86 3d 51 6b 72 3e
       0.039176963 -0.24987385 0.06543675 0.2367375
000190 d7 7d 03 3e 79 e9 ef 3d d1 15 88 3e 7c 3d 51 be
       0.12840973 0.11714453 0.26579145 -0.2043361
0001a0 8f be 78 be a8 26 8e 3e 2a f6 2d be 7e de 78 bd
       -0.24291442 0.27763867 -0.16988435 -0.06075906
0001b0 d1 63 96 3e 1f c0 18 be 6f 48 56 3e 4b a4 a8 3e
       0.2937303 -0.14917038 0.20926069 0.32937846
0001c0 48 1f e2 3d 7a be 93 3e de 39 95 3e c7 74 06 be
       0.11041123 0.2885626 0.29145712 -0.13130485
0001d0 4c a9 f0 bd 84 b3 6a 3e 0c 0a a8 3e 4d ff b1 3d
       -0.11751041 0.22920042 0.32820165 0.08691273
0001e0 42 d8 7b 3e 38 20 22 3e e7 5c cd bd 9e 0c 04 3d
       0.24594215 0.15832603 -0.10027485 0.032238595
0001f0 1f ba 17 be b0 93 26 3e e1 3f 5f bc 81 1d 51 be
       -0.14817093 0.16267276 -0.01362607 -0.20421411
000200 93 3b 7c be fa 1d be 3c bb a4 61 be 74 d1 e4 bd
       -0.24632101 0.023207653 -0.22035496 -0.111727625
000210 bb 9d 94 be e1 d7 f8 3d af 4d 3e 3d e0 f0 b9 3d
       -0.2902659 0.12150551 0.046460804 0.090791464
000220 79 42 95 be 11 1f 9f bd 04 f6 63 3d 55 7e 8b 3d
       -0.29152277 -0.07769597 0.05565454 0.06811205
000230 6b 80 94 be 28 d2 fc 3d 8c 14 f8 bc f6 41 87 bd
       -0.29004225 0.123447716 -0.030283235 -0.06604378

bias f4 [12]
000000 ac 4b a2 3d 97 5d 45 be 0a 84 eb bd bb f1 86 3e
       0.079245895 -0.19273983 -0.11499794 0.263563
000010 23 f4 a2 3e 0a 1e 8a 3e de ae 33 bd 38 1b de bd
       0.31826887 0.26976043 -0.04386794 -0.10845035
000020 30 ce 9a bd 28 f7 a6 3c f9 e8 80 3e 55 03 1e 3e
       -0.075588584 0.020381525 0.25177744 0.15430959

weight f4 [1, 12]
000000 d4 79 7a 3e b8 89 07 3e f5 90 ed bd d7 3b 6f 3e
       0.24460536 0.1323613 -0.11599914 0.23362671
000010 a3 f3 45 3e 07 92 8c 3e 48 6d ae bc ee 46 4b 3e
       0.19331221 0.2745516 -0.021292344 0.19851276
000020 d9 9e 9f 3d 2a a1 2e 3e c3 11 db 3d d4 f2 29 be
       0.0779397 0.17053667 0.10696747 -0.16596538

weight f4 [16]
000000 cc 7f 91 3f a6 aa 7e 3f 20 12 91 3f d9 9a 89 3f
       1.1367126 0.9947914 1.1333656 1.0750381
000010 33 61 89 3f c1 29 88 3f b1 17 81 3f 3a 08 8f 3f
       1.0732788 1.0637742 1.0085355 1.1174386
000020 5a 30 8d 3f b6 7f 8b 3f 86 38 84 3f e0 fa 84 3f
       1.1030381 1.0898349 1.032975 1.0389061
000030 6f 4e 83 3f ab 47 82 3f 5b ee 91 3f 67 0d 9a 3f
       1.0258311 1.0178121 1.1400865 1.203534

bias f4 [16]
000000 6a 55 82 bd 3f 24 cb 3d de 80 54 bd b7 2b c0 bb
       -0.06363948 0.09919023 -0.05188071 -0.005864586
000010 f3 28 3c 3d 0f 44 24 3d f2 b0 ba 3d a5 0d 94 bd
       0.04593749 0.04010397 0.09115781 -0.07229165
000020 7a 97 41 bd 27 c1 64 bb 06 b2 ba 3d 75 8c a2 3d
       -0.0472636 -0.0034905167 0.091159865 0.07936946
000030 c7 c0 a5 3d cc d1 a3 3d de 1a ce bd 72 3f 64 bd
       0.0809341 0.07999 -0.10063718 -0.05572457

running_mean f4 [16]
000000 59 f6 32 3d 9c 33 23 3f 26 15 73 39 ad b6 fa 3d
       0.043691967 0.63750625 0.00023182164 0.12241874
000010 9f d0 a4 3d ab ed 89 3d 0e fc 1a 36 ed 44 a1 35
       0.08047604 0.06734785 2.3094503e-06 1.2015495e-06
000020 d9 eb 89 3b 30 e8 16 3d 51 0d 7b 3d 18 75 0b 33
       0.0042090234 0.036842525 0.061291996 3.2469956e-08
000030 1b b4 1a 3e 68 d9 a5 3e d8 ef 82 3c 39 05 3f 38
       0.15107767 0.3239243 0.015983507 4.5542813e-05

running_var f4 [16]
000000 07 ab f2 3b 8a 77 f7 3e 42 c0 e2 37 a5 7b b5 3c
       0.007405642 0.4833339 2.7030826e-05 0.022153685
000010 06 4e 59 3c 58 c5 3b 3c ac 59 f6 33 8f c7 9c 33
       0.013263231 0.011460625 1.1471579e-07 7.3006156e-08
000020 05 e0 2d 3a 7e 9d c6 3b 06 e7 43 3c aa d0 59 31
       0.0006632808 0.006061255 0.011956936 3.1696268e-09
000030 e9 27 1e 3d af c2 15 3e df 7d 54 3b 74 5a b8 36
       0.03861228 0.14625047 0.0032423658 5.4941574e-06
